results/nn_regression/model.pth (torch, 45437 bytes, 5 tensors)

0.weight f4 [64, 133]
0	0xbd48b3c0	-0.048999548
1	0xbd4886cc	-0.048956677
2	0xbc94724b	-0.018120905
3	0xbcfa8d3d	-0.030584926
4	0xbda2d091	-0.07949937
5	0xbd8a8d75	-0.06765262
6	0x3d53fc9d	0.051754583
7	0x3d975544	0.0738931
8	0xbc1facf9	-0.00974583
9	0x3d9371e5	0.07199458
10	0x3cc55b1e	0.0240913
11	0xbc898921	-0.016789021
12	0xbb75bf8e	-0.0037498209
13	0x3d637869	0.055534754
14	0xbcc84ea5	-0.024451563
15	0x3dc1ae03	0.09457018
16	0x3d57d99c	0.052697763
17	0xbe0b9941	-0.1363268
18	0xbe1cb692	-0.1530402
19	0xbcebb3e9	-0.028772311
20	0x3d69b8de	0.05706107
21	0x3dd7ce64	0.10537413
22	0xbd7143a9	-0.058902416
23	0x3c805d9c	0.015669636
24	0xbda71c2e	-0.08159672
25	0x3db5a6b2	0.08869685
26	0xbe001f18	-0.12511861
27	0xbdb0cc6c	-0.086327404
28	0xbe2521a6	-0.16126117
29	0x3db96134	0.09051743
30	0x3dbfa011	0.09356702
31	0xbc000eeb	-0.007816057
32	0xbd9ebf65	-0.07751349
33	0x3cb51bb8	0.022107944
34	0x3dd6fb5d	0.104971625
35	0x3dd07f60	0.10180545
36	0x3cfd88bc	0.03094899
37	0xbc5bff75	-0.013427605
38	0x3d887293	0.06662478
39	0x3dc8fa81	0.09813405
40	0x3d4dbe95	0.05023058
41	0x3db1a91b	0.086748324
42	0x3db0090f	0.08595478
43	0x3d9d4fdf	0.0768125
44	0xbe058b4d	-0.1304142
45	0x3bb798b8	0.0056029223
46	0xbc34e659	-0.011041247
47	0x3df7ee9f	0.1210606
48	0xbdbfdda3	-0.09368446
49	0xbd2159c5	-0.03939225
50	0xbd3d3fb9	-0.04620335
51	0x3da63d8a	0.081172064
52	0xba63cc5d	-0.00086898153
53	0xbe0673c2	-0.13130096
54	0xbd13e549	-0.036107335
55	0x3db7ad16	0.089685604
56	0xbd4c9608	-0.04994777
57	0xbde7bb61	-0.113150366
58	0x3dc6b8e2	0.09703232
59	0x3db7daf6	0.0897731
60	0x3d3ae3fe	0.045627587
61	0xbdedf806	-0.11619572
62	0x3d46650c	0.04843621
63	0x3d827620	0.06370187
64	0xbb946bb9	-0.004529443
65	0xbcf96d0f	-0.030447511
66	0xbe1b7713	-0.15182142
67	0xbc352315	-0.0110557275
68	0x3de50df9	0.11184306
69	0xbdf4d5ea	-0.11954863
70	0xbe12d858	-0.14340341
71	0xbe021bda	-0.12705937
72	0xbdc34eeb	-0.09536537
73	0x3d1ee5f5	0.038793523
74	0x3d9306eb	0.07179054
75	0x3d854886	0.065079734
76	0x3c192c43	0.009348932
77	0xbd9ce02c	-0.07659945
78	0x3dc9ef2a	0.0986007
79	0xbd309623	-0.04311193
80	0xbe1a0566	-0.15041122
81	0xbdbea1b3	-0.093081854
82	0xbcfdcf4d	-0.030982638
83	0x3dcb508c	0.099274725
84	0xbd63c5f3	-0.0556087
85	0x3cbf7af4	0.023374058
86	0xbd82786c	-0.06370625
87	0xbdeecfb2	-0.116607085
88	0x3dbb57c7	0.091476016
89	0x3c3ee2c1	0.011650742
90	0xbdb1f037	-0.086883955
91	0x3d2ab9ed	0.04168122
92	0xbd4d6df7	-0.0501537
93	0x3db9786c	0.09056172
94	0x3bf4179a	0.0074491026
95	0xbd3e46ac	-0.046454117
96	0x3cff0237	0.031128986
97	0x3c81e08d	0.015854144
98	0x3c078261	0.008270831
99	0xbe06d1c0	-0.13165951
100	0xbd48461c	-0.048894987
101	0x3d3f6d92	0.046735354
102	0x3db0a2f9	0.086248346
103	0xbe1c1f25	-0.15246256
104	0xbe07868e	-0.13234922
105	0xbc1e0b64	-0.00964627
106	0x3db40d2f	0.08791577
107	0xbe185c8c	-0.14879054
108	0xbdbc82cf	-0.09204637
109	0xbda80ddc	-0.082057685
110	0xbde99d33	-0.114069365
111	0x3dc67b66	0.09691505
112	0xbe15348a	-0.14570823
113	0xbd50a655	-0.050939877
114	0x3caf9357	0.021432562
115	0x3d6e6774	0.05820413
116	0xbcc1f727	-0.023677422
117	0xbd77a4dd	-0.06045996
118	0xbda4c650	-0.080456376
119	0xbc242370	-0.010018215
120	0x3c80ca38	0.015721425
121	0xbd7663d3	-0.060153794
122	0xbcc51d97	-0.024061961
123	0xbd25f01f	-0.0405122
124	0x3d362122	0.04446519
125	0x3999bdde	0.00029323896
126	0x3d7d7738	0.061881274
127	0x3d117c5e	0.035518996
128	0x3d937850	0.07200682
129	0xbd8496b8	-0.0647406
130	0xbd4c279c	-0.049842462
131	0xbcc66197	-0.024216456
132	0xbd433c9f	-0.047665235
133	0xbc4efb06	-0.012633091
134	0xbda5cfa1	-0.08096243
135	0xbd6991fe	-0.057023995
136	0xbe03db8f	-0.12876724
137	0xbcfa8feb	-0.030586204
138	0xbcdea47e	-0.027178045
139	0xbbaac484	-0.005211415
140	0x3d2562e5	0.040377516
141	0x3cad83dc	0.02118104
142	0x3dad344d	0.08457241
143	0xbc5946cc	-0.013261508
144	0x3d0f0b4f	0.034922894
145	0xbc828a51	-0.015935095
146	0xbd0e3db2	-0.034726806
147	0x3dcc720c	0.0998269
148	0x3c943a02	0.018094067
149	0x3d819456	0.06327121
150	0xbdb89351	-0.090124734
151	0x3dac3d0c	0.08410081
152	0xbd53d99b	-0.051721197
153	0xbd9957d0	-0.07487452
154	0x3cfd375d	0.030910188
155	0xbd5f5a11	-0.054529253
156	0x3ceb2bc7	0.028707398
157	0xbe044a17	-0.12918888
158	0xbe18a0fc	-0.1490516
159	0x3d1bda08	0.038049728
160	0xbe0d83c6	-0.13819799
161	0x3d85bd11	0.06530202
162	0xbe1c6a5b	-0.15274946
163	0x3c26a6c8	0.0101716
164	0x3dab2c05	0.083580054
165	0xbde68281	-0.112553604
166	0x3d06ca8d	0.03290801
167	0xbcd8ab8b	-0.026448986
168	0x3d8667ad	0.06562743
169	0x3c45898d	0.01205672
170	0xbdbb0eae	-0.09133659
171	0xbd5545d3	-0.052068543
172	0xbe26d011	-0.16290309
173	0xbac58c79	-0.0015071771
174	0xbd23d58a	-0.03999857
175	0x3cfe83c5	0.031068692
176	0xbd2ed5c2	-0.042684324
177	0x3d85521e	0.06509803
178	0x3de321ef	0.11090457
179	0xbc1b0bab	-0.009463231
180	0xbe11bee7	-0.1423298
181	0x3dccc0b1	0.099976905
182	0xbd04ea6c	-0.032450125
183	0xbd699f8d	-0.057036925
184	0x3d086e9b	0.033308607
185	0xbdab1263	-0.08353116
186	0xbe224494	-0.15846473
187	0x3d84f424	0.06491879
188	0x3d18579d	0.03719293
189	0x3dd831b3	0.105563544
190	0xbd806ada	-0.0627038
191	0x3bef02d5	0.007294039
192	0x3d6b0e0b	0.05738644
193	0xbe18d020	-0.14923143
194	0x3df4af7c	0.119475335
195	0xbdeb4a7a	-0.11488815
196	0x3d7a55c7	0.06111696
197	0xbde2d688	-0.11076075
198	0xbdf15cc8	-0.11785275
199	0xbe1a2ec4	-0.15056902
200	0x3d217d62	0.039426215
201	0xbd2d6b05	-0.04233839
202	0x3da66e09	0.08126456
203	0xbe247898	-0.16061628
204	0xbe22e855	-0.1590894
205	0x3d6457b6	0.05574771
206	0x3dbc3fa8	0.09191829
207	0x3d8efa68	0.06981355
208	0xbd9cdf75	-0.076598085
209	0xbe05a244	-0.1305018
210	0x3d76be97	0.060240354
211	0x3d8c9d6b	0.068659626
212	0x39a16780	0.00030785426
213	0xbc8dc671	-0.017306538
214	0x3d3b2e7b	0.045698624
215	0xbde189db	-0.11012622
216	0x3d44b101	0.048020367
217	0xbd932f83	-0.071867965
218	0xbda8e087	-0.0824595
219	0xbd96ec1b	-0.07369252
220	0xbbb3d4d1	-0.005488016
221	0x3db1e4c4	0.08686212
222	0xbd4ead5c	-0.050458297
223	0xbe0a059e	-0.13478705
224	0x3d129fe5	0.03579702
225	0x3cea7532	0.028620336
226	0x3d881605	0.06644825
227	0x3c846516	0.016161483
228	0xbc8ab6d5	-0.016932884
229	0x3d69a011	0.057037417
230	0x3d155686	0.03645947
231	0xbd90ff97	-0.0708
232	0xbbdd3c8c	-0.0067516025
233	0xbda3a5de	-0.07990621
234	0x3d161501	0.036641125
235	0xbde7ea24	-0.11323956
236	0xbd1a2b4a	-0.03763894
237	0xbe279cca	-0.16368404
238	0xbb69b290	-0.003565941
239	0x3c4ad03d	0.012378749
240	0xbd277ea4	-0.04089226
241	0xbdc29afb	-0.095022164
242	0xbe14981c	-0.1451115
243	0xbca33c80	-0.01992631
244	0x3d8768d6	0.06611793
245	0x3d8ee54b	0.06977328
246	0xbd25e029	-0.04049698
247	0xbc830f3f	-0.01599848
248	0xbd3eead2	-0.04661066
249	0xbd794963	-0.060861003
250	0xbd2926a5	-0.04129662
251	0xbbded8a2	-0.006800727
252	0x3d889681	0.06669331
253	0xbd0766f6	-0.033057176
254	0x3d8d879e	0.069106326
255	0xbd4433ed	-0.047901083

0.bias f4 [64]
0	0x3d3c7cd7	0.046017494
1	0x3da0ad16	0.078455135
2	0x3cd8e216	0.026474994
3	0x3c22c501	0.009934665
4	0x3d9b0b32	0.07570495
5	0x3b86d1d5	0.0041143694
6	0x3e274d2f	0.16338037
7	0x3e13f1c9	0.14447702
8	0x3d0db531	0.034596626
9	0x3dd1b047	0.102387
10	0x3dd9c2a0	0.10632825
11	0x3e09e403	0.13465886
12	0xbd85cc80	-0.06533146
13	0x3b91bfae	0.004447899
14	0x3dea10a5	0.11428956
15	0x3dc8010f	0.09765827
16	0x3e199cf3	0.15001278
17	0x3cb47441	0.02202809
18	0x3d91d42a	0.07120545
19	0x3cd7359a	0.026270676
20	0x3d7fd3a0	0.06245768
21	0x3e007172	0.12543276
22	0x3dbab77f	0.0911703
23	0x3e051f47	0.13000213
24	0x3d189f42	0.037261255
25	0x3dfd96c9	0.123822756
26	0x3dc9ee8e	0.09859954
27	0x3e1e53cf	0.15461658
28	0x3dd72b2d	0.10506282
29	0xbbc64d2d	-0.0060516805
30	0x3d1669ed	0.036722112
31	0x3d5e9af1	0.054346982
32	0xbd045d92	-0.032315798
33	0x3d50bdaa	0.050962128
34	0xbd3195e5	-0.04335584
35	0x3decb1cc	0.115573496
36	0xbab0375d	-0.0013444234
37	0x3d88677e	0.066603646
38	0x3dc31585	0.09525589
39	0xbd1992e7	-0.037493613
40	0x3dd2034b	0.10254534
41	0x3dfe0bfe	0.12404631
42	0x3dec36f5	0.1153392
43	0x3dbfe0d3	0.09369054
44	0x3dbe3800	0.09288025
45	0x3cace1bd	0.021103734
46	0x3dea691f	0.114458315
47	0xbd833143	-0.0640588
48	0x3d9327f8	0.07185358
49	0x3db2136f	0.08695113
50	0x3db6ce15	0.08926026
51	0x3dbcbb44	0.092154056
52	0x3dd198e5	0.102342404
53	0x3d931d06	0.0718327
54	0x3d6ce667	0.057836916
55	0x3be8330f	0.007086165
56	0x3e0f50dd	0.1399569
57	0x3dce6ed9	0.10079736
58	0x3c22d061	0.009937377
59	0x3e03ade6	0.12859306
60	0x3deb6d88	0.11495501
61	0x3d0f0914	0.034920767
62	0xbcfb6825	-0.030689308
63	0x3d2e3b11	0.0425368

2.weight f4 [32, 64]
0	0x3d904cbd	0.07045887
1	0x3d737a5f	0.059442874
2	0x3d824456	0.0636069
3	0xbe07fdf6	-0.13280472
4	0x3d23989a	0.039940454
5	0x3ccd6e1b	0.025076916
6	0xbe04b0e2	-0.129581
7	0x3dabca8b	0.083882414
8	0xbe0a0c1c	-0.13481182
9	0xbe0773ae	-0.13227722
10	0x3d66795f	0.056268092
11	0x3c6f5207	0.014606959
12	0xbdc5579d	-0.096358515
13	0x3d5f8d20	0.054577947
14	0x3dc69ed6	0.09698264
15	0xbd14f969	-0.03637067
16	0xbd65a759	-0.0560678
17	0xbad8d9c5	-0.0016544393
18	0x3d9cd708	0.076582015
19	0xbc9e658f	-0.019335536
20	0xbdadfdda	-0.08495684
21	0xbd8a6a83	-0.06758597
22	0xbe0b0402	-0.13575748
23	0xbdf5b50b	-0.11997422
24	0xbda7441d	-0.081672885
25	0xbe07bb25	-0.13254984
26	0xbd3ae2a4	-0.045626298
27	0x3d35890d	0.044320155
28	0xbde9e480	-0.11420536
29	0x3d8b3225	0.06796674
30	0x3da927df	0.08259558
31	0xbd0b4042	-0.033996828
32	0x3d59ea20	0.053201795
33	0xbe01a169	-0.1265923
34	0xbdbaa11c	-0.091127604
35	0x3c8877fd	0.016658777
36	0x3d16dd11	0.03683192
37	0x3db028d7	0.086015396
38	0x3dc71057	0.097199135
39	0xbd5d8d2d	-0.054089714
40	0x3da62631	0.08112753
41	0xbd940d15	-0.07229058
42	0x3d71da02	0.0590458
43	0xbda6a09f	-0.08136105
44	0x3c875126	0.016518187
45	0xbde17ea7	-0.11010485
46	0xbdf46f02	-0.119352356
47	0x3d19a760	0.037513137
48	0xbe0e5dd6	-0.13902983
49	0x3d203d96	0.039121233
50	0xbd43ab00	-0.0477705
51	0x3dba61aa	0.09100659
52	0x3c4b9f60	0.012428135
53	0xbe01efa4	-0.12689072
54	0xbd869336	-0.06571047
55	0xbd83f176	-0.064425394
56	0xbe0e2352	-0.13880661
57	0x3d1ea5ad	0.03873222
58	0x3d360957	0.0444425
59	0xbb3288cf	-0.0027242189
60	0xbdf75f90	-0.12078774
61	0x3d6682b4	0.056276992
62	0x3d6f7996	0.058465563
63	0xbc9d9116	-0.019234221
64	0xb879a2ef	-5.951797e-05
65	0x3db89fbc	0.09014842
66	0x3d97013a	0.07373281
67	0xbd4dd254	-0.050249413
68	0x3cd61b2b	0.026136002
69	0x3dc61293	0.096715115
70	0xbb8cd409	-0.0042977375
71	0x3db0cbd2	0.08632626
72	0xbbff3a84	-0.007788958
73	0x3d36a8b5	0.044594485
74	0x3e210f84	0.15728575
75	0x3d80e942	0.062944904
76	0x3d5d0784	0.053962246
77	0x3d3716ef	0.044699606
78	0x3d2bedf2	0.04197497
79	0x3da7de24	0.08196667
80	0x3dbd68f5	0.092485346
81	0xba7864d6	-0.0009475475
82	0xbd29eea3	-0.041487347
83	0x3d1be610	0.0380612
84	0xbc720b48	-0.0147731975
85	0xbc803e7f	-0.0156548
86	0x3d8a13ca	0.06742056
87	0xbc871147	-0.01648773
88	0xbc2d3243	-0.010571065
89	0x3d82ba12	0.06383146
90	0x3bcbf010	0.006223686
91	0x3d80d787	0.062911086
92	0x3d707b00	0.058711052
93	0xbd6bd513	-0.05757625
94	0x3c32b166	0.010906553
95	0x3cb93133	0.022606468
96	0x3cbc71fc	0.02300357
97	0x3e1b49fd	0.15164943
98	0x3dd28f0f	0.102811925
99	0x3e024970	0.12723327
100	0x3d8a031b	0.067388736
101	0xbd366f3b	-0.04453967
102	0x3e18276a	0.14858785
103	0x3da6c301	0.08142663
104	0xbd28e02f	-0.041229423
105	0x3e05be6f	0.13060926
106	0x3e0f813a	0.1401414
107	0xbd109d7a	-0.03530643
108	0x3e312e2f	0.17302774
109	0x3cda6098	0.026657388
110	0x3e3eada1	0.18620922
111	0x3e139161	0.14410926
112	0x3c8efa1a	0.017453242
113	0x3d2de189	0.042451415
114	0x3d57cd88	0.052686244
115	0xbc82f87c	-0.015987627
116	0x3cd8564c	0.026408337
117	0x3d15a81b	0.03653727
118	0xbbf817f9	-0.007571217
119	0x3d63184b	0.05544309
120	0x3cb303d8	0.021852419
121	0xbd38973d	-0.045066107
122	0x3d314584	0.043279186
123	0x3d1c89e8	0.038217455
124	0xbc9adb44	-0.018903382
125	0x3c43008e	0.011901988
126	0x3c49e9c2	0.012323799
127	0x3d0743e2	0.033023722
128	0x3cc55f7c	0.024093382
129	0x3cfb4151	0.030670794
130	0x3d409606	0.047018073
131	0x3ce3e7fb	0.027820578
132	0x3df1624c	0.11786327
133	0x3d8bcd9c	0.06826326
134	0x3cc78223	0.024354046
135	0x3e027e0e	0.12743399
136	0xbca9b124	-0.02071435
137	0x3d4b8f27	0.049697068
138	0xbc2c5859	-0.010519111
139	0x3e38f96d	0.18063898
140	0xbd02bbb2	-0.03191728
141	0x3ded4376	0.11585133
142	0x3e054ea2	0.13018277
143	0x3dac01a9	0.08398754
144	0x3e36503e	0.17804047
145	0x3e1933ca	0.14961162
146	0x3e038ba8	0.12846243
147	0x3e229f30	0.15881038
148	0x3e2d7022	0.16937307
149	0x3d408ee2	0.047011264
150	0x3c9b7043	0.018974429
151	0x3e37f434	0.1796425
152	0xbd0578c4	-0.032585874
153	0x3d79f9b8	0.061029166
154	0xbcf718ad	-0.030163134
155	0x3dee597e	0.11638163
156	0x3c968c56	0.018377464
157	0x3dbb1317	0.091345005
158	0x3daf0baf	0.0854715
159	0xbbe15e5e	-0.0068777045
160	0x3e111474	0.14167958
161	0x3e139375	0.14411719
162	0x3dae28f3	0.08503904
163	0x3e3ece59	0.18633403
164	0x3e19d443	0.15022378
165	0x3e335327	0.17512189
166	0x3c5cf13e	0.013485251
167	0x3e32128d	0.17389889
168	0x3de97e23	0.11401012
169	0x3d8ca096	0.06866567
170	0x3d60def7	0.054900136
171	0x3d4a40f8	0.049378365
172	0x3db5751f	0.0886023
173	0x3e261656	0.16219458
174	0x3db6e24b	0.08929881
175	0xbcc259af	-0.023724405
176	0x3c116007	0.008872992
177	0xbd6c8dec	-0.057752535
178	0x3e2894a0	0.16462946
179	0x3d674d5c	0.05647026
180	0xbc2c9974	-0.010534633
181	0x3cafccc1	0.021459939
182	0x3d0e2cf6	0.034710847
183	0x3c82a151	0.015946062
184	0x3d3b583f	0.045738455
185	0x3d6db026	0.058029316
186	0x3d8b8378	0.06812185
187	0x3d4910d3	0.04908831
188	0x3dffe03c	0.12493941
189	0x3d84e01d	0.06488059
190	0x3d425dab	0.04745261
191	0x3d57b93c	0.052666888
192	0x3e3e762f	0.18599771
193	0x3e0d5221	0.13800861
194	0x3e1a69dd	0.15079446
195	0x3ca109be	0.019657966
196	0x3c8bbbb3	0.017057275
197	0xbd209ca1	-0.039211873
198	0x3b9adc00	0.004725933
199	0x3e384fad	0.17999144
200	0x3df2fe3b	0.11864897
201	0xbd0e58a7	-0.034752514
202	0xbd54f146	-0.05198791
203	0x3dd47f53	0.10375848
204	0x3b6cf9fd	0.0036159747
205	0x3dbdc2f9	0.09265704
206	0x3d45668d	0.048193503
207	0xbcb1fdfc	-0.021727555
208	0x3c8adb03	0.016950136
209	0x3e0126dd	0.12612481
210	0x3ce140ab	0.027496656
211	0x3d9e04f6	0.0771579
212	0x3d02c2fd	0.031924237
213	0xbc184d11	-0.009295718
214	0x3e2cf6ff	0.16891097
215	0x3e305340	0.17219257
216	0x3dc94877	0.09828275
217	0x3d3b855f	0.04578149
218	0x3c88e4fd	0.016710753
219	0x3db379ae	0.08763443
220	0x3d24dff5	0.040252645
221	0x3de3926b	0.111119114
222	0x3c4d1fd7	0.012519798
223	0x3d93c9bc	0.07216212
224	0x3dde0841	0.10841418
225	0x3ddccb97	0.10781019
226	0xbd2db3f9	-0.042407963
227	0x3e166661	0.14687492
228	0x3d258c96	0.040417276
229	0xbd2d40dd	-0.042298187
230	0xbcb89ef6	-0.022536736
231	0x3e33d0ca	0.17560115
232	0x3dc0f1a9	0.09421093
233	0x3c8f5176	0.017494898
234	0x3db354f4	0.08756438
235	0x3dadd185	0.08487228
236	0xbc73568c	-0.014852177
237	0xbd0b3bff	-0.033992764
238	0x3e32c421	0.1745763
239	0x3d0c5dbc	0.03426908
240	0x3dd5b1a6	0.104342744
241	0x3d0bf2d9	0.034167144
242	0x3c595a99	0.013266229
243	0x3dae80e9	0.085206814
244	0x3e220494	0.15822059
245	0x3e112adc	0.14176506
246	0x3e27ce43	0.16387276
247	0x3dd68fe5	0.104766645
248	0xbd6c7d8e	-0.057736926
249	0x3d7c12c0	0.06154132
250	0x3e0a4842	0.13504127
251	0x3dda9fca	0.106750086
252	0xbd559125	-0.052140374
253	0x3c3903e0	0.011292428
254	0x3de3747e	0.111062035
255	0x3ca2f598	0.019892499

2.bias f4 [32]
0	0x3d066e27	0.032819893
1	0x3dd2e683	0.10297873
2	0x3e0f5bd5	0.13999875
3	0x3cb7816a	0.022400577
4	0x3bfa5eea	0.007640709
5	0xbe12f288	-0.14350331
6	0x3d7e3a7c	0.062067494
7	0xbd8030f4	-0.06259337
8	0xbdb4f391	-0.08835519
9	0x3d9bb240	0.07602358
10	0xbc15ec4d	-0.009150577
11	0x3d089a79	0.03335044
12	0x3cc0cab5	0.023534158
13	0x3dc9d084	0.09854224
14	0xbdd50a1a	-0.10402317
15	0xbce57444	-0.028009541
16	0xbdfa573c	-0.1222367
17	0xbdce1e9b	-0.10064431
18	0x3e3ec952	0.18631485
19	0x3d1f7304	0.038928047
20	0xba9644a8	-0.0011464553
21	0x3ddec439	0.1087727
22	0x3cdcfda1	0.026976408
23	0x3c87852e	0.016542997
24	0x3e0d83d7	0.13819824
25	0xbd43d126	-0.04780688
26	0x3d4a1ebf	0.049345728
27	0x3e010aa2	0.12601712
28	0x3dcb7e6f	0.09936225
29	0x3c842dc5	0.016135106
30	0x3d9b7039	0.07589764
31	0xbe09bc24	-0.13450676

4.weight f4 [1, 32]
0	0xbdff7faf	-0.124755256
1	0x3dba45cd	0.09095345
2	0x3daab86f	0.08335959
3	0x3e5def3d	0.21673293
4	0x3e58db6c	0.21177453
5	0xbbf9893f	-0.007615238
6	0x3d8bc58c	0.068247885
7	0xbe1f85b6	-0.1557835
8	0xbdc03ab6	-0.09386198
9	0x3e363676	0.17794213
10	0xbdc84ab1	-0.09779871
11	0x3e7055c9	0.23470224
12	0x3e5d35ac	0.21602505
13	0x3e4e6dd4	0.20159084
14	0xbdd7a40a	-0.10529335
15	0xbd7af43f	-0.061268087
16	0xbe16c2ed	-0.14722796
17	0xbdd1d8d2	-0.10246433
18	0x3e06d231	0.13166119
19	0xbcd4c392	-0.025972161
20	0x3e4e0167	0.20117722
21	0x3e7848d8	0.24246538
22	0xbd701b54	-0.058619812
23	0xbdcd4036	-0.10022013
24	0x3dbeee40	0.09322786
25	0x3e5a54d3	0.2132142
26	0xbda5b310	-0.08090794
27	0x3ddcd115	0.10782067
28	0x3e2556c7	0.16146384
29	0x3e244cc7	0.16044913
30	0xbcb120e6	-0.021622133
31	0xbde5ab03	-0.112142585
