results/nn_regression/model.pth (torch, 45437 bytes, 5 tensors)

0.weight f4 [64, 133]
000000 c6 ee ed bd df a5 12 bc 97 16 3a 39 b0 17 0b 3d
       -0.11617808 -0.00895068 0.00017746758 0.033958137
000010 fb 20 6a 3d a9 d7 3d 3d e2 dd 3f 3c 0b dd 96 bc
       0.05716036 0.046348248 0.011710616 -0.018415948
000020 fd 0c ae bd 26 02 dd 3d ef ce cd 3c dd 4a 58 3d
       -0.08498571 0.107914254 0.025123088 0.05280577
000030 c8 c9 4e bd ac 0d a4 3c 36 ad bd 3d 5e bd 2d 3d
       -0.050485402 0.02002605 0.09261553 0.042416923
000040 67 c1 e9 3b 93 a7 2f be e4 de da 3d eb 7b 8e 3d
       0.007133651 -0.17153768 0.10687044 0.06957229
000050 1a 4b 16 bd 49 e8 65 bd 5c ed 26 be b4 c7 21 bd
       -0.036692716 -0.056129728 -0.16301483 -0.039497092
000060 a0 eb fe bd 65 e7 97 bd 87 57 02 3e 99 20 18 be
       -0.12447286 -0.07417182 0.12728702 -0.14856185
000070 0f b7 49 3d 81 66 1e be a9 33 dc 3d 10 e3 7b 3d
       0.049246844 -0.1546879 0.10752041 0.06149584
000080 fb 84 06 be 93 2c be bd 0a c5 2a be 9b bc 0d be
       -0.13136666 -0.092858456 -0.16676727 -0.13841479
000090 44 ca ba 3d ab 7d 3e bd 73 e8 99 bd de 7d dd bd
       0.0912061 -0.046506565 -0.07515039 -0.10815023
0000a0 70 39 0d 3b 6c 3b f1 3d 88 90 e6 bd ab dd af bd
       0.0021549128 0.11778912 -0.11258036 -0.08587202
0000b0 8d 6b 86 3c 1c 92 cd 3d 7a ca e0 ba da 1f ba 3d
       0.016408706 0.10037634 -0.0017150186 0.090881065
0000c0 35 4d 97 3d 6c ec 16 be 34 7b dc bd 3b 6d 0d bd
       0.07387773 -0.14738625 -0.10765687 -0.034528
0000d0 f9 d3 b0 bc a5 d5 ed bc ec 87 02 3d 2a ec d0 3d
       -0.021585451 -0.029032538 0.031867906 0.10201295
0000e0 77 3b a4 bd ad a7 9b bc 4a bd 0e be 6e c5 be 3d
       -0.080191545 -0.019000852 -0.13939396 0.093150005
0000f0 81 bc 92 3d fc e7 c3 3d 29 48 30 be 92 07 14 be
       0.071648605 0.09565732 -0.17215027 -0.14456013
000100 e7 f5 05 be db 87 07 bd f7 9f 14 be b9 60 14 3c
       -0.13082086 -0.033088546 -0.14514147 0.009056264
000110 e0 6c ca 3d 30 ac 05 3e 44 ee 19 be ab 13 2d be
       0.098840475 0.13053966 -0.15032297 -0.16902034
000120 0f 2b b3 3d 08 54 1c be 40 fb 09 be 07 69 ae 3d
       0.08748447 -0.1526643 -0.1347475 0.08516126
000130 97 0c b8 bd 5f 29 38 bb 5f 31 d1 bd cb 95 5e bb
       -0.08986776 -0.002810083 -0.10214495 -0.0033963795
000140 e3 35 f3 bd 1a 68 8f bb dc 57 42 3a 68 30 fb bd
       -0.118755125 -0.0043764235 0.0007413605 -0.12265092
000150 16 89 53 bd 4e 67 17 be ee ad 7b 3d d1 c0 0b 3d
       -0.051644407 -0.14785501 0.06144517 0.03411943
000160 21 88 18 bc c5 f6 9f 3d 16 1c 7b bd f8 32 14 be
       -0.009309799 0.078107394 -0.06130608 -0.14472568
000170 8d 7d 6d bd 17 40 c3 bd be 6a 1e 3d c4 55 de 3d
       -0.057981063 -0.095337085 0.038676016 0.10856202
000180 00 c1 6a 3d 31 ff 29 bd b8 6c a8 3c cc d8 dc 3d
       0.057312965 -0.041503135 0.020559654 0.10783538
000190 4d 10 cf bc 6b fc ad bd 61 04 8c bd 52 8a df bd
       -0.025276328 -0.084954105 -0.06836773 -0.109150544
0001a0 ae 60 69 bd ad fc 76 3d 53 f7 5a bc f0 29 b9 3c
       -0.056976967 0.060299564 -0.013364631 0.022603005
0001b0 dd 1c b3 bc 26 9a da bd 3b 9e fd 3d 3d 9c 8a bd
       -0.021864349 -0.10673933 0.12383696 -0.06768081
0001c0 ef 0b 82 3c 5a cc 43 bd a8 43 46 bc 33 50 c6 bd
       0.015874831 -0.047802307 -0.012101091 -0.096832655
0001d0 6a 94 b1 bd 51 c2 00 3d 92 76 2a be 73 8b bd 3d
       -0.08670886 0.031435315 -0.16646793 0.092551135
0001e0 fe 2f c0 bd 10 3b 6b 3d b8 ee 85 3c 94 8e aa 3d
       -0.09384154 0.057429373 0.016349182 0.08327976
0001f0 9c d8 0f 3d 97 de 99 bb c7 bb d2 3c 6e 60 8c 3d
       0.035118684 -0.004695724 0.025724305 0.0685433
000200 bb 09 a0 bc 5a 90 f6 3d 78 58 d8 bd 9d 3e b1 3d
       -0.01953589 0.120392516 -0.10563749 0.08654521
000210 4f 8b 2f 3c df 84 e3 bc a1 2b 93 3d a6 84 81 ba
       0.010714366 -0.027773319 0.07186056 -0.0009881451
000220 20 28 88 bd 4f c4 9d 3d 6a 47 c1 bc 78 6f 43 3d
       -0.06648278 0.077034585 -0.023593623 0.047713727
000230 64 a8 25 3d bd 11 a9 3d d7 f6 1d 3d 77 3c 9f bd
       0.040443793 0.082553364 0.038565483 -0.07775205
000240 7a 57 e4 bc 91 d0 06 3e 10 6a 18 3a 04 92 25 bd
       -0.027873743 0.131655 0.00058141444 -0.040422454
000250 ab 54 b6 3d 33 25 96 bd 83 cf 38 bd 9a 89 99 bd
       0.08902868 -0.07331314 -0.045119774 -0.074969485
000260 ea b3 83 3d b1 d3 8c 3d e8 ba b1 bd be 7d 30 ba
       0.064308 0.068763144 -0.08678228 -0.0006732604
000270 24 05 d2 bb a6 f9 ee bd 40 6e 13 3c 5f 76 e5 3d
       -0.006409304 -0.116687104 0.008998454 0.11204218
000280 c9 52 9b 3d 1a ed 7d 3d 90 a3 64 bd 51 be 21 bb
       0.075841494 0.061993696 -0.055820048 -0.0024680088
000290 a5 09 ec 3b 2c 4a 22 3d 17 75 09 bd 9e 9f 03 ba
       0.007203298 0.039621517 -0.03355893 -0.0005021038
0002a0 c1 4e 57 3d c4 21 35 bd fe 93 3d bd 8b 3a 43 bd
       0.05256534 -0.044221655 -0.046283714 -0.047663253
0002b0 fe 3a a9 bc 3a 44 6c bc a6 e1 00 be 8e d2 6d bd
       -0.020658012 -0.014420563 -0.12586078 -0.05806213
0002c0 fd 73 b3 bd 07 f2 3b 3d 5a e1 cb 3c 61 a4 70 3d
       -0.087623574 0.045885112 0.02488773 0.058750514
0002d0 74 be e0 bc b4 38 59 3c a8 1b a9 bc be 30 d9 bc
       -0.027434565 0.013258148 -0.02064307 -0.0265125
0002e0 e6 cb d3 bd d0 c9 92 bd 5b fb 6c 3c 7c ff cc bd
       -0.10341625 -0.07167399 0.014464225 -0.10009667
0002f0 26 9d 3e 3d 23 6e a0 3b 85 28 65 bd 42 0a 86 bd
       0.046536587 0.004895942 -0.055946846 -0.06544925
000300 a4 a4 5c 3d f9 72 61 bd 35 26 b1 3d ab e8 94 3d
       0.05386795 -0.055041287 0.086498655 0.072709404
000310 fc 53 8c 3c 5b 3f 5a bd b5 dd 98 3d 6e b6 93 bd
       0.01712989 -0.053283077 0.07464162 -0.0721253
000320 db 43 95 bd 8e 15 34 3d f8 87 21 3d 11 a6 b7 bd
       -0.07288333 0.04396587 0.03943631 -0.089672215
000330 a9 ef b3 3d c0 c1 81 3d 0b 93 22 bd f9 32 cd bd
       0.08785946 0.06335783 -0.039691012 -0.10019488
000340 39 10 84 3c 62 ec e7 bd 41 8f 54 3b 84 b7 8a 3c
       0.016121017 -0.11324383 0.0032434019 0.01693321
000350 99 53 41 3d 4b 5c 1a bd b8 5f 99 bd 1f 87 e0 3c
       0.047198866 -0.037685674 -0.0748896 0.02740818
000360 4b 8f ef bd 8f a3 27 3d f3 cc 70 bc 38 2d 37 3d
       -0.11697253 0.040927466 -0.014697301 0.04472086
000370 ed d5 d1 3d 8e c4 cb bc 41 de c4 bc 3b 20 ca bd
       0.10245881 -0.024873998 -0.02403176 -0.09869429
000380 6d 75 7b 3d 95 5d 54 bd 04 c6 7a 3c d6 c4 8c 3d
       0.061391283 -0.05184706 0.015306 0.06873481
000390 dd 00 81 3d 9b 0e 90 bc eb 8c 1c 3c 8b 41 2d 3d
       0.06298993 -0.01758509 0.009555082 0.042298835
0003a0 ab 4c 94 3d 07 23 0b bd e2 b7 e1 bd d9 04 4a bd
       0.07241186 -0.03396895 -0.11021401 -0.04932103
0003b0 ab 8e 9e 3d 03 8d 1b bc c3 1b fa bd 64 3e 26 3d
       0.077420555 -0.009494069 -0.122123264 0.040586844
0003c0 c4 48 72 3c 61 ff ef 3b c8 4e 8e 3c 02 ab 58 bd
       0.0147878565 0.0073241447 0.01737155 -0.05289746
0003d0 31 d7 08 3c b0 35 eb bc ac 85 f0 bd 5a 4c 76 3d
       0.008352087 -0.028712124 -0.11744246 0.06013141
0003e0 9e 6d 08 bd bb c7 f4 bd 24 0e 9b bd 9c f1 01 bd
       -0.033307664 -0.11952158 -0.075710565 -0.031724557
0003f0 2b ec 3d 3d 4f 73 db bb 79 ce 26 3c 46 dd b4 3c
       0.046367805 -0.0066970955 0.010181063 0.022078168

0.bias f4 [64]
000000 fa c0 6d 3d 23 fa 38 3d 69 7f 72 3d 85 5c 5b 3c
       0.058045365 0.045160424 0.05920354 0.013388758
000010 8a 09 2e 3e aa 79 d5 3d 7f 32 94 3d 90 5d b6 3b
       0.16995826 0.10423596 0.07236194 0.0055653527
000020 58 cf 8a 3b a6 82 10 3e e4 ca 39 ba ba a5 3a 3d
       0.004236143 0.14112338 -0.0007087423 0.045568205
000030 6e 4b 4b 3d 9a 48 37 bc 4c 8b eb 3d 08 25 01 3d
       0.049632482 -0.011186743 0.11501178 0.031529456
000040 8d 46 8d 3d a1 3c 62 39 5c a3 b7 bb 95 6a fc 3c
       0.06898222 0.00021575626 -0.0056041908 0.030812541
000050 b8 60 b9 3c 64 3b c4 3d de 88 ea 3d fd b5 31 3d
       0.022629127 0.0958164 0.114518866 0.04338645
000060 7b f3 39 3d 57 38 b1 3d 52 2d 0d bb 7d 23 a9 3d
       0.045398217 0.08653324 -0.0021541906 0.08258722
000070 a9 91 74 3d 69 c4 58 3d 43 b4 ac bd df c6 e4 3d
       0.059709225 0.052921686 -0.0843282 0.11170744
000080 c1 80 03 bd 92 4b 2e bd 04 a3 c5 3d 31 bb ed 3d
       -0.03210521 -0.04255254 0.096502334 0.116079696
000090 28 3e 8a bd 64 dd 09 3e f9 0e 56 bd 7a 55 34 3d
       -0.067501366 0.1346336 -0.052260373 0.04402683
0000a0 e1 5b b9 3d f1 4f 0f bc 64 ed a7 3d 63 84 8d 3d
       0.09050728 -0.008747087 0.081995755 0.069100164
0000b0 ad a0 e0 3b c6 af 14 3e f3 69 b7 3c 27 0e 30 3d
       0.0068550915 0.14520177 0.022389388 0.042982247
0000c0 e6 d8 eb 3d 2d c4 a2 3d 06 50 c1 3c 3a 24 ab 3d
       0.115159795 0.07947574 0.023597728 0.08356519
0000d0 54 4c bf 3c 96 59 c3 3d c3 01 2e 3e 9a 33 86 3d
       0.023351826 0.095385715 0.1699286 0.06552811
0000e0 8b a3 c5 3d a7 1f 03 3e a5 b2 d5 3d 4b 85 d4 3d
       0.09650334 0.12805043 0.10434464 0.10376986
0000f0 e9 d3 03 bd fc 06 4f bd ce ef d2 3d 6f 71 1c 3e
       -0.032184515 -0.05054377 0.10299645 0.15277646

2.weight f4 [32, 64]
000000 bc 26 4f 3e 23 13 d1 3d 92 78 87 bc 75 b3 99 3d
       0.2022962 0.10208728 -0.016536985 0.07504932
000010 ed 3d 41 3d 81 61 b1 3d e7 17 f2 3d 7e b3 aa 3c
       0.047178198 0.086611755 0.11820965 0.020837542
000020 74 91 4f 3c c5 2e 1d 3e d1 b4 ea 3d 04 a4 dc bc
       0.012668956 0.15349872 0.11460269 -0.026933677
000030 9d 33 c7 3d 8d 86 9c bc fc bf a1 3d fc da f1 3d
       0.09726641 -0.019107128 0.07897946 0.11809346
000040 39 35 27 bd a7 41 14 3e 81 93 80 bd d8 a4 44 3e
       -0.04082224 0.1447817 -0.06278134 0.19203508
000050 62 a2 d6 3d 1a a5 b8 3b 45 65 c3 3d 5f 76 ff 3d
       0.10480191 0.005634916 0.095408 0.12473749
000060 62 01 9e bc 2c 54 28 bd 73 d0 98 3d 36 13 40 3e
       -0.019287769 -0.041095898 0.074616335 0.18757328
000070 a9 18 4b 3e cf 11 e0 3c ca 96 14 3e 60 fa 55 bd
       0.19833626 0.027352242 0.14510646 -0.05224073
000080 e2 30 30 3c 7b 15 0b 3e 38 b2 fc bc 93 74 42 3d
       0.010753842 0.13582413 -0.0308467 0.047474455
000090 94 e4 ba bb 46 45 30 3e 9f 13 db 3d 83 ab 56 bd
       -0.005703518 0.17213926 0.10697102 -0.05240966
0000a0 74 fb 0d bd b5 3c b0 3c f9 60 60 3d 58 1b 96 3d
       -0.034663633 0.021513322 0.05477998 0.07329434
0000b0 0b d3 02 bc 24 51 9b 3d 48 21 f3 3d bd f4 17 bd
       -0.007984887 0.07583836 0.11871582 -0.037098635
0000c0 0e 68 b0 bc 82 2e 54 bd 78 7c 2b 3e 05 42 eb 3d
       -0.021533992 -0.051802166 0.167467 0.114872016
0000d0 2d c1 6f bd 5c cd fb ba 4e 84 35 3e c6 45 96 3d
       -0.058533836 -0.0019210982 0.17726251 0.07337527
0000e0 78 97 46 bd 66 ed 87 3d bb d4 1d 3d b2 56 3a 3e
       -0.048484296 0.06637077 0.038532954 0.18197134
0000f0 0b 02 14 3d 47 6f b9 bc 6e de 14 3e 5b 0e 79 bc
       0.03613476 -0.022636069 0.14537975 -0.0152011765
000100 02 f9 f3 bd df 98 bd bd 00 c8 f1 bd a8 4b c4 3c
       -0.11912729 -0.092576735 -0.11805725 0.023961857
000110 2c 4e bb bd a1 ce 5d 3d c1 7a 36 3d 93 ed cf bd
       -0.091457695 0.054152135 0.04455066 -0.101527356
000120 e4 86 b9 bd 8b 43 12 be e6 39 d0 bd 91 09 05 bd
       -0.090589315 -0.14283578 -0.10167293 -0.032479826
000130 41 02 42 3d 12 83 31 3d 5f b7 48 3c ec 48 cf bd
       0.04736543 0.04333789 0.01225075 -0.101213306
000140 5c 7c b8 bd e0 a0 82 bc 87 d3 d9 3d 7f be 95 3d
       -0.09008095 -0.015945852 0.10636049 0.07311725
000150 0f e1 35 3a 3d bb 15 be ef 7d cc bd 87 1d 08 3d
       0.00069381384 -0.14622207 -0.099849574 0.033231284
000160 b1 7b 87 bd b7 7b a2 3d 0e 2d 48 3d ad 0e 90 3c
       -0.06615389 0.07933753 0.048871092 0.017585123
000170 a8 e5 ea bd e4 d4 e6 3b 73 04 1c bd 84 1a 77 3d
       -0.11469585 0.0070444215 -0.03809018 0.06032802
000180 a5 2c 73 3c 07 71 0e be 1c 13 16 3d 6c 65 97 bd
       0.014842187 -0.13910304 0.036639318 -0.073923916
000190 6a 0f db bd 31 b2 44 3d 60 fa c9 3d 7b 85 ad 3d
       -0.106962994 0.0480215 0.09862208 0.08472725
0001a0 ad 18 92 3c d4 2f 93 3d 80 4b f1 bd b8 72 6c 3d
       0.017834032 0.07186857 -0.117819786 0.05772659
0001b0 d0 16 2c bd 9e b8 98 3d 4d 34 35 bd 77 a4 9d 3c
       -0.042013943 0.07457088 -0.04423933 0.019243462
0001c0 30 46 83 bc 2f ef 40 bd 37 c0 a0 3d 48 20 a7 3d
       -0.016024679 -0.047103103 0.07849162 0.08160454
0001d0 5e 44 9d bb 3c b4 39 bc 84 c5 f8 bc 08 e0 22 3d
       -0.00479941 -0.011334475 -0.03036762 0.039764434
0001e0 f2 f3 bf bd ce 13 0c be 5a 73 3e 3d 29 69 97 bc
       -0.09372701 -0.1367943 0.046496727 -0.018482761
0001f0 2f 39 ea bb a8 16 9a bd a0 9f 56 bd 36 9a 9a bd
       -0.00714793 -0.075238526 -0.052398324 -0.07548945
000200 3f 1a 46 3e 3c 79 14 3e 47 eb 6a 3d a5 a1 64 3d
       0.1934595 0.14499372 0.057353284 0.05581822
000210 1d 1c 0e 3e 81 b2 c9 3d 22 1b 62 3d aa e4 a6 3d
       0.13877912 0.098485 0.055201657 0.08149083
000220 e9 be 28 3e c5 ed a9 3d 0b 0a 00 3e 6a 20 15 3e
       0.16479076 0.08297304 0.12503831 0.14563146
000230 b9 8e db bc a1 bf 20 3c a3 36 f9 ba 19 94 3f 3e
       -0.026801454 0.009811313 -0.0019013475 0.18708839
000240 47 12 03 3e 45 8e 94 3d b2 79 bb 3c 7b 11 bf bc
       0.12799941 0.07253698 0.022885177 -0.023323765
000250 8f a9 2c 3e 16 34 cb 3d 2b 83 1c 3e c1 2d 74 bd
       0.16861556 0.09922044 0.15284412 -0.059613947
000260 36 2f d1 3d de a5 b1 3c 4f 5f 22 3e b1 c3 33 bd
       0.10214083 0.021685537 0.1585667 -0.043887798
000270 a3 85 1a 3d a0 c3 10 3e 42 17 43 3e 1a 7b 99 3d
       0.037725102 0.14137125 0.19051841 0.07494183
000280 5e 15 27 3e 37 28 81 bc 76 2b 8c 3c e1 63 00 3e
       0.16316745 -0.015766246 0.017110568 0.12538101
000290 7f 46 f1 3d fe 37 15 3e 71 0b 77 bc 25 3d a7 3d
       0.11781024 0.1457214 -0.015078411 0.08165959
0002a0 60 9c 68 3d 86 73 ab 3d a8 84 15 3c b0 9a 16 3e
       0.056789756 0.08371644 0.009125866 0.14707446
0002b0 20 34 a8 3c 38 94 31 3e b3 33 e6 ba f8 93 44 3c
       0.020532668 0.17341697 -0.0017563015 0.011998169
0002c0 e8 8f 20 3e c6 26 ff 3d 43 40 f2 3d 83 88 20 3e
       0.15679896 0.12458567 0.11828663 0.15677075
0002d0 78 e8 87 bd de 3e 29 3e 2e ff a7 3d ac 4d 1d 3d
       -0.06636137 0.16527888 0.082029685 0.03840415
0002e0 ed de 0e 3d cd 42 8e 3c cc 74 05 3d 6c a8 a6 3d
       0.034880567 0.017365837 0.03258209 0.08137593
0002f0 67 7d 00 3e 44 41 b5 3d 3d 09 9f 3d ff 83 64 bc
       0.12547837 0.08850339 0.07765434 -0.013947486
000300 4a b2 ba bd 08 87 8f bb fd c8 2f bc fb 62 01 bd
       -0.09116037 -0.0043801107 -0.010729072 -0.031588536
000310 cb ab c1 bc 80 78 91 3d fd 66 07 3d f9 01 10 3d
       -0.023641488 0.07103062 0.0330572 0.03515813
000320 3c 7d 66 bc a3 55 c0 bd fa 26 af 3d cd 0d 04 be
       -0.014067944 -0.09391334 0.08552356 -0.1289589
000330 64 85 07 be 67 1d d8 bd 16 bc e0 bb 39 6a b7 3d
       -0.13234478 -0.10552483 -0.006858359 0.08955807
000340 6f 8d 8c 3d 26 b1 3c 3d 31 d7 91 bc cb f9 f6 bc
       0.06862914 0.04606738 -0.017802807 -0.030148407
000350 cb 5a 9e 3d 3f 00 0a be 6e f1 f9 bd 70 79 37 bd
       0.07732161 -0.13476656 -0.12204252 -0.044793546
000360 34 fb b9 3c 6b 8b 9d 3d c5 09 d4 3c c1 c1 fe bd
       0.02270279 0.076926075 0.025883565 -0.124392994
000370 31 b7 cc bd 08 2a 5d bd 7d ec 07 be d2 2f 08 3d
       -0.099958785 -0.053995162 -0.13273807 0.03324873
000380 d8 28 a7 3d 2c e5 29 ba 92 80 b1 bd 90 bb a3 bc
       0.08162087 -0.00064809876 -0.08667101 -0.019986898
000390 ba 80 82 bd 0d 14 7d 3c c1 ab ba bd d6 7f 97 3c
       -0.06372209 0.015446675 -0.09114791 0.018493574
0003a0 94 60 a9 3d d3 1d 8c bd 03 86 14 be af 94 c0 bc
       0.08270374 -0.06841626 -0.14504246 -0.023508398
0003b0 2f db 88 3c 5e 01 55 3a a7 9d 01 bd fc 8f 8a 3d
       0.016706077 0.0008125509 -0.03164449 0.06765744
0003c0 bc 94 a3 3d 55 db b1 3d e4 d2 b0 bd 78 5d 16 be
       0.07987353 0.086844124 -0.08633974 -0.14684093
0003d0 96 93 6f 3b 50 82 8e 3d c0 41 9e 3d 7d 2c 5b 3d
       0.0036556474 0.06958449 0.077273846 0.053509224
0003e0 2b 20 90 3d bd 5c 13 be c6 de be 3c 9c 9b f6 bc
       0.070373856 -0.14390846 0.023299586 -0.030103497
0003f0 c9 fa a3 3d cd 6e 1d bd fd 6c 49 3d e8 ca 82 3d
       0.08006818 -0.038435746 0.049176205 0.063863575

2.bias f4 [32]
000000 9d 6e 9d 3d 96 1d 1c 3d c5 1f a0 3c f7 75 c0 bd
       0.076871134 0.038114153 0.019546399 -0.093975
000010 12 2b 15 3e a1 12 21 3e bd 79 d8 bd bd 4c 2b 3d
       0.14567211 0.15729763 -0.10570095 0.04182123
000020 7f 34 b7 3d c2 2d c3 bd 67 3d 05 3e 7a 46 54 3d
       0.0894556 -0.09530212 0.13011704 0.051825024
000030 9f 8f 7f 3d a3 d5 9c bd c3 72 f7 bd 64 56 98 3d
       0.062392827 -0.076579355 -0.12082436 0.07438353
000040 86 5d 3a 3e ea 05 d2 3c 6f a3 06 3e 3e 02 00 3e
       0.18199739 0.025637586 0.13148282 0.12500855
000050 a7 25 d1 3c 6f 68 3f 3e 20 62 33 3e aa f4 77 3d
       0.02553065 0.18692182 0.175179 0.060536064
000060 22 15 01 3e 8d 7d fb 3c fe a5 b3 bd e3 96 f3 bd
       0.12605718 0.030699516 -0.08771895 -0.11894014
000070 0c cc 37 bd 7e 97 c7 bd 99 fc d6 bc 87 69 cb 3d
       -0.04487233 -0.09745692 -0.026243495 0.09932237

4.weight f4 [1, 32]
000000 aa 15 cf 3d 4d 69 eb 3b 26 67 91 3d 26 22 cc bd
       0.10111554 0.0071841837 0.07099752 -0.09967451
000010 89 e0 46 3e 29 cf 50 3e 8e 63 1f be d2 71 43 3e
       0.19421591 0.20391525 -0.15565321 0.19086388
000020 0c c9 d0 bd 19 79 c6 bd c5 dd 20 3e cd fd 0e be
       -0.10194597 -0.09691066 0.15709598 -0.13964005
000030 0e 05 86 bd 7d ae 1d be 57 ad 59 bd 10 dd 63 3e
       -0.06543933 -0.15398593 -0.053143825 0.22252297
000040 f4 b0 0a 3e 4e c0 38 3e c1 cd de 3d ce d4 e1 3d
       0.13544065 0.18042108 0.10879088 0.110269174
000050 e2 c3 00 3e 58 14 3e 3e ac a2 13 3e 53 63 f8 3d
       0.12574723 0.18562448 0.14417523 0.121283196
000060 26 dc d1 3d 4e 6e 40 3e 01 3e 9f bc c3 93 bb bd
       0.10247068 0.18792078 -0.019438745 -0.09159043
000070 4e aa 88 bd 9d bb c4 bc 4c 62 d0 bc 13 ff 19 3e
       -0.06673108 -0.024015242 -0.025437497 0.1503871
